igmc_runs/igmc_robot_best.pt (torch, 171767 bytes, 15 tensors)

convs.0.weight f4 [1, 6, 32]
0	0xbe2013ba	-0.15632525
1	0x3e82cd5f	0.2554731
2	0x3e04d9e1	0.12973739
3	0xbe247bff	-0.16062926
4	0xbdf59e76	-0.11993115
5	0x3e36b472	0.17842272
6	0xbe4a78d3	-0.19772653
7	0x3dac6659	0.08417959
8	0xbe8afb38	-0.2714479
9	0x3da251f4	0.079257876
10	0xbc8d8244	-0.01727403
11	0xbead1ad2	-0.33809525
12	0xbe209064	-0.1568008
13	0x3e97bf97	0.2963836
14	0x3ec11d4b	0.3771766
15	0x3e1a1c37	0.15049826
16	0xbec3025b	-0.38087735
17	0x3e0e4065	0.13891752
18	0x3e40e3ab	0.18836848
19	0xbebcf0e1	-0.36902526
20	0x3ea25a51	0.3170953
21	0xbeb8305b	-0.35974392
22	0xbea92da0	-0.33042622
23	0x3e4ece97	0.20195995
24	0xbe99fe02	-0.30076605
25	0xbe4845c9	-0.19557871
26	0xbe2a725b	-0.16645186
27	0x3e9f059b	0.31058964
28	0xbe7bf47a	-0.24604979
29	0x3e2e6028	0.17028868
30	0xbe656138	-0.22400367
31	0x3e3c52b9	0.18390931
32	0x3e319596	0.17342219
33	0xbdb988da	-0.090593055
34	0x3e3f8ada	0.18705311
35	0x3e6d22cc	0.23157805
36	0xbea3d03d	-0.3199481
37	0x3ea76d41	0.32700542
38	0x3e381ba1	0.1797929
39	0xbe970ef4	-0.29503596
40	0x3dece5e6	0.11567287
41	0xbd716d14	-0.058941916
42	0x3e882040	0.26587105
43	0xbe53fe22	-0.20702413
44	0x3ebed259	0.37269858
45	0xbb3a5eae	-0.002843778
46	0xbe406669	-0.18789066
47	0xbe445684	-0.19173628
48	0x3e48f6c5	0.19625385
49	0x3eafa1db	0.34303173
50	0x3d491fc1	0.04910255
51	0xbdb49e10	-0.088192105
52	0xbe38693a	-0.18008891
53	0xbe2ac3db	-0.16676275
54	0xbe4815c1	-0.19539548
55	0x3e9420ce	0.28931278
56	0xbebe0b2b	-0.37117895
57	0xbdc77f5f	-0.09741091
58	0x3e89a8d3	0.26886615
59	0xbe9d8ddd	-0.30772296
60	0x3d84a8ee	0.06477533
61	0xbe82b01f	-0.25524995
62	0x3e980fa9	0.29699448
63	0x3cdb00e4	0.026733823
64	0xbb3cb37a	-0.00287935
65	0xbae545c2	-0.0017492103
66	0x2533a34f	1.5581106e-16
67	0xa8aff86b	-1.9536637e-14
68	0xaa7fb33e	-2.2710737e-13
69	0x3b8a64f1	0.004223459
70	0x345d0b9e	2.0586455e-07
71	0x258625f8	2.3271023e-16
72	0xbc930c28	-0.017950132
73	0xbb9dae8f	-0.004812069
74	0xbbad5cab	-0.005290588
75	0x235202c7	1.1384711e-17
76	0xa60ca87a	-4.8800586e-16
77	0xb18f4b5b	-4.1704147e-09
78	0x3c6c8df5	0.014438142
79	0xb9475928	-0.00019011332
80	0x38b914d7	8.825369e-05
81	0x3c8ff109	0.01757099
82	0x2a461342	1.7592614e-13
83	0xbb1f5a5a	-0.0024315328
84	0xbb1648a7	-0.0022931488
85	0x3362e91a	5.283173e-08
86	0xa184fd68	-9.011744e-19
87	0x293c0a42	4.1753283e-14
88	0x3c583dfb	0.013198371
89	0xa25cf6b8	-2.9946172e-18
90	0x9d747658	-3.2354313e-21
91	0xbba1f6d3	-0.004942754
92	0x276a44e6	3.2511373e-15
93	0xa1a3f802	-1.1110957e-18
94	0xbb9d51d4	-0.0048010144
95	0xb7cdb663	-2.4522835e-05
96	0x361fc2c2	2.380621e-06
97	0x21960dac	1.0168014e-18
98	0xba898ae4	-0.0010493663
99	0x3c89864f	0.016787676
100	0xb80219f5	-3.101859e-05
101	0x3a4c9807	0.0007804636
102	0x3ae72f6a	0.0017638032
103	0xa02373f8	-1.3845008e-19
104	0xb8bae482	-8.911734e-05
105	0x3c20d99e	0.009817509
106	0x2f82b25f	2.3773603e-10
107	0xbc8de20a	-0.017319698
108	0xb910bd78	-0.00013803493
109	0x3c2a7294	0.010403294
110	0xbc47a330	-0.012184903
111	0xa013e528	-1.2527206e-19
112	0x3b3e19bf	0.0029007045
113	0xa194770f	-1.0060385e-18
114	0xb131aad4	-2.5853995e-09
115	0x33d55132	9.933355e-08
116	0x24225222	3.519772e-17
117	0xba88aaa5	-0.0010426833
118	0xbad79d84	-0.0016450142
119	0xb93b0b42	-0.00017837904
120	0xb9dc6eb2	-0.00042044144
121	0x3b17db35	0.002317143
122	0x2e92faea	6.6838826e-11
123	0xa8348044	-1.001982e-14
124	0x3b2bb0e7	0.0026197971
125	0x3143140d	2.8387632e-09
126	0x3adf0b6e	0.0017016956
127	0xbab2e482	-0.0013648423
128	0x230f3b70	7.764632e-18
129	0x241e546e	3.4332303e-17
130	0xbc15a3cb	-0.00913329
131	0xa805c6f6	-7.426126e-15
132	0x355b9645	8.180253e-07
133	0xa2f969c3	-6.7603565e-18
134	0xbbe8a5e2	-0.007099853
135	0x3a9ac1cc	0.0011807024
136	0xb65a1dfb	-3.2501982e-06
137	0x3b79138a	0.003800603
138	0x2433894a	3.8930726e-17
139	0xa916c265	-3.34753e-14
140	0xbbb8a9b2	-0.0056354636
141	0xb665a802	-3.4221453e-06
142	0xbb779bdf	-0.0037782115
143	0xb1de4442	-6.4688104e-09
144	0xbc0e0e0b	-0.00867034
145	0x3c7079bf	0.014677464
146	0x24ce3ec4	8.944459e-17
147	0xbc5679e8	-0.013090588
148	0x356be9c7	8.788451e-07
149	0xbc61bba5	-0.013777648
150	0xb1a20316	-4.7151714e-09
151	0xb4da94af	-4.0713846e-07
152	0xa183a114	-8.919542e-19
153	0xbba213c5	-0.0049462044
154	0x3b8220b5	0.003971184
155	0x25b6d676	3.1717292e-16
156	0x3c2db9bf	0.010603367
157	0xa3a24adb	-1.7595778e-17
158	0x2757d87f	2.9954607e-15
159	0x210a14b0	4.67836e-19
160	0x21f26cf5	1.6427399e-18
161	0x3c6b2a87	0.014353401
162	0xbc87f496	-0.01659612
163	0x20321d51	1.5086886e-19
164	0xba0f1ac3	-0.0005459005
165	0xa40a9c13	-3.005618e-17
166	0x39d3477f	0.00040298325
167	0x3be41eeb	0.0069616935
168	0x3798d80a	1.8220413e-05
169	0xaa0fee58	-1.2783644e-13
170	0x37a44441	1.9582107e-05
171	0x3bfde8d3	0.007748702
172	0xa3845907	-1.4349173e-17
173	0x3c8e32d7	0.017358227
174	0x3ba54bc2	0.0050444314
175	0x38305a0c	4.2045533e-05
176	0xbc44810d	-0.011993659
177	0xb8936db4	-7.02994e-05
178	0x3a55d72a	0.0008157367
179	0x2e4325e5	4.4371524e-11
180	0xbaf19afa	-0.0018433027
181	0x2d45b135	1.1237501e-11
182	0xb39161ca	-6.7698764e-08
183	0x3b54dec4	0.0032481411
184	0x3c540c06	0.01294232
185	0xb9223d23	-0.00015472299
186	0xbba3f757	-0.0050038504
187	0x2460db30	4.8757916e-17
188	0x25090718	1.1885259e-16
189	0xb72d59cc	-1.0332511e-05
190	0x375fdd33	1.3343338e-05
191	0xa755e2d2	-2.9682648e-15

convs.0.root f4 [6, 32]
0	0x3e3d2c12	0.18473843
1	0xbe2c8a53	-0.16849642
2	0x3ed21267	0.41029665
3	0x3e8d937d	0.27651587
4	0xbd2bbace	-0.041926198
5	0xbe46e9bf	-0.19425105
6	0xbecd001a	-0.4003914
7	0xbecd2008	-0.400635
8	0xbe800323	-0.25002393
9	0x3ec31f85	0.38109985
10	0x3be1e0f6	0.0068932725
11	0x3e5ef92d	0.2177474
12	0x3e860440	0.26175117
13	0xbe96681f	-0.29376313
14	0xbea463c9	-0.3210738
15	0xbed303ed	-0.41213933
16	0x3d688ab7	0.056772914
17	0xbeb1fc73	-0.34762916
18	0xbea69d3d	-0.32541838
19	0x3db21851	0.08696044
20	0x3e02f485	0.1278859
21	0x3e09b11a	0.13446465
22	0x3dc2fda0	0.095210314
23	0xbecef72b	-0.4042295
24	0xbbd9118a	-0.0066244053
25	0xbdd19cc4	-0.10234979
26	0xbe99065d	-0.29887667
27	0xbdf336be	-0.118756756
28	0xbebcf512	-0.36905724
29	0x3d80796a	0.06273158
30	0xbdf95534	-0.12174454
31	0xbe8fb44b	-0.2806724
32	0x3e07f6a5	0.13277681
33	0x3e80024e	0.25001758
34	0x3eb8f2ed	0.36122838
35	0xbd4a73bf	-0.04942679
36	0x3e170cc9	0.14750971
37	0xbe97622c	-0.29567087
38	0xbda8b4de	-0.08237623
39	0x3e2d6ea0	0.16936731
40	0xbcaa7931	-0.020809742
41	0x3ded3e8c	0.115841955
42	0x3e9903df	0.29885766
43	0xbe402392	-0.18763569
44	0xbeb30e0a	-0.34971648
45	0xbeb0c006	-0.34521502
46	0xbec3c002	-0.38232428
47	0x3e9cb785	0.30608764
48	0x3e29400f	0.16528343
49	0xbd267b4d	-0.040644933
50	0x3d552351	0.052035633
51	0x3e5ed57a	0.21761122
52	0x3e3304fe	0.17482373
53	0xbe60d28d	-0.21955319
54	0x3e898d11	0.26865438
55	0x3cfe6fc0	0.031059146
56	0x3e3dd5aa	0.18538538
57	0x3ea5fa86	0.32417697
58	0x3d922dd9	0.07137651
59	0x3ea59148	0.32337403
60	0x3dada732	0.084791556
61	0xbec99af7	-0.3937604
62	0x3e7c9c6f	0.2466905
63	0x3ea458d1	0.32099012
64	0xafcb643c	-3.6996706e-10
65	0x38ac3c29	8.212805e-05
66	0x3429d4ef	1.5816816e-07
67	0x213abdec	6.327061e-19
68	0x3bc5ea47	0.006039891
69	0x39c12b9f	0.0003684433
70	0x24c8f570	8.715196e-17
71	0xac800ffc	-3.6397534e-12
72	0xba92a9ca	-0.0011189517
73	0xbca10cbc	-0.019659393
74	0x2319972f	8.326161e-18
75	0xa40233f0	-2.823325e-17
76	0x216f94bc	8.11732e-19
77	0x3c373fc8	0.01118464
78	0xa2ceda64	-5.606764e-18
79	0x3bc065a6	0.0058714924
80	0x34d6589d	3.992508e-07
81	0xbc32d2e8	-0.010914542
82	0x20250e64	1.3980805e-19
83	0xa69953ae	-1.0639189e-15
84	0x3846f046	4.743065e-05
85	0x20d9d2a4	3.690062e-19
86	0xbc46c8e7	-0.01213286
87	0x20200137	1.3552929e-19
88	0x3ab17641	0.0013539271
89	0x274b58fc	2.8220148e-15
90	0xa9492ba8	-4.466883e-14
91	0xafb562d6	-3.2993935e-10
92	0xbaca0339	-0.0015412337
93	0x25671427	2.0042884e-16
94	0x35a63d87	1.2385871e-06
95	0x271d1b46	2.1802912e-15
96	0xa653d817	-7.3498187e-16
97	0xbc07b033	-0.008281755
98	0x3c3db995	0.011579891
99	0xbb7c5d89	-0.00385079
100	0xa3625db0	-1.2271324e-17
101	0x32cc8c84	2.3812625e-08
102	0xbb62a937	-0.0034585723
103	0xa813f36b	-8.212922e-15
104	0x23cd40c4	2.2253574e-17
105	0x3c8c90d6	0.017158907
106	0x3967382a	0.000220508
107	0x210fc9d2	4.871739e-19
108	0x3aa5054b	0.0012590078
109	0x212c4181	5.836256e-19
110	0x3be5e085	0.00701529
111	0xbaa77b28	-0.0012777792
112	0xbc4be9a7	-0.012445844
113	0xbc19d51b	-0.009389187
114	0xac1f2132	-2.2613686e-12
115	0xbb863d7c	-0.004096685
116	0xa20bce15	-1.8947112e-18
117	0xa6017ad1	-4.4922313e-16
118	0x2967f09f	5.150101e-14
119	0xb9809c3e	-0.00024530472
120	0xbae3e9bc	-0.0017388384
121	0xa293f6b9	-4.0105658e-18
122	0xba729fb0	-0.00092553627
123	0xb16ea039	-3.4724634e-09
124	0xb3bd03ab	-8.8016655e-08
125	0xaa9d188b	-2.7905832e-13
126	0x37557baf	1.2724587e-05
127	0xbb1c85a7	-0.0023883374
128	0x21becf00	1.2929693e-18
129	0xa378d544	-1.3489268e-17
130	0xbc4bf898	-0.012449406
131	0x3c02cb3b	0.007983024
132	0xbbde210c	-0.006778842
133	0xa50c473e	-1.2167202e-16
134	0xa3e583e1	-2.4884083e-17
135	0x342ec4be	1.6276587e-07
136	0xa8375cf1	-1.0178694e-14
137	0xb7e2a54d	-2.7018274e-05
138	0x22e9870a	6.3297755e-18
139	0xb24a3a92	-1.1771265e-08
140	0x36723ea7	3.6097279e-06
141	0x3c8ca628	0.017169073
142	0x35f49bfd	1.8224815e-06
143	0x3524ad74	6.134717e-07
144	0x23a12c9b	1.7474546e-17
145	0xa36cbc42	-1.2833451e-17
146	0x3c337d7a	0.010955209
147	0x35a9a519	1.2639531e-06
148	0x3c303872	0.010755645
149	0x28132df6	8.170105e-15
150	0xa4a4bf60	-7.1447864e-17
151	0x2603a35e	4.567116e-16
152	0xb9b57ba3	-0.00034615127
153	0x3c2bcc7e	0.010485766
154	0xbb8cb5da	-0.0042941393
155	0xaa5339bb	-1.8760594e-13
156	0x3c027ff7	0.0079650795
157	0xa10cbf71	-4.7687216e-19
158	0xa146c5b0	-6.7346647e-19
159	0x34e1439f	4.1958717e-07
160	0xb7b3f1fe	-2.145115e-05
161	0xb9859634	-0.00025479647
162	0xbb278c9b	-0.0025565985
163	0xbbc00710	-0.005860217
164	0x27bed2f2	5.29643e-15
165	0xb6a283b3	-4.843308e-06
166	0x389b791e	7.413536e-05
167	0xaf28d888	-1.5356438e-10
168	0xba821ac1	-0.0009926186
169	0x25c00250	3.3308258e-16
170	0xba62a87f	-0.00086463237
171	0x392c084a	0.00016406286
172	0xbb3e1472	-0.0029003886
173	0x3c8ee420	0.017442763
174	0xba5ac5de	-0.00083455245
175	0x3bc893d8	0.00612114
176	0xa0c555a5	-3.3429773e-19
177	0x2164eac2	7.7560104e-19
178	0x3c5bd1e6	0.013416743
179	0xb8e5abd9	-0.0001095158
180	0xa31d9d20	-8.5442596e-18
181	0x28ba7a92	2.0703305e-14
182	0xb8abf5ce	-8.1997e-05
183	0xaa0eff79	-1.2700768e-13
184	0xba5298a1	-0.0008033608
185	0xb6ad0a44	-5.156997e-06
186	0x3c99b6ee	0.018763985
187	0x3857d7cf	5.1460982e-05
188	0xb55ff96e	-8.343694e-07
189	0x27173a63	2.0987111e-15
190	0xa82b011f	-9.49265e-15
191	0xb7aff3b5	-2.097511e-05

convs.0.bias f4 [32]
0	0x3c7ab0f8	0.015300982
1	0xbcb27bff	-0.021787642
2	0x3bf23077	0.0073910314
3	0x3c764703	0.015031579
4	0x3d20d112	0.039261885
5	0xbc319b8b	-0.010840307
6	0xbb0a76bc	-0.00211279
7	0xbc8edd60	-0.017439544
8	0xbc42c6bf	-0.011888205
9	0xbaea3cb2	-0.0017870872
10	0x3ca27c30	0.019834608
11	0xbb8c61fe	-0.0042841425
12	0x3c420cf1	0.011843906
13	0xbca2f982	-0.019894365
14	0xbc7a87d4	-0.015291173
15	0x3cb7443b	0.022371402
16	0x3c3737fe	0.011182783
17	0xbc68fd9f	-0.014220624
18	0x3afb82c5	0.0019188753
19	0x3c766355	0.015038331
20	0x3cb1544c	0.021646641
21	0xbcd0a1c6	-0.025467765
22	0x3c42b3fd	0.011883733
23	0xbb63eaaa	-0.0034777322
24	0x3c57f322	0.013180526
25	0xbc6e4e85	-0.014545088
26	0x3b7b0217	0.0038300806
27	0x3cb601d4	0.022217669
28	0xbc90b14e	-0.01766267
29	0xbc96741a	-0.018365908
30	0xbbda72cf	-0.0066665183
31	0x3cc3a1f4	0.023880936

convs.1.weight f4 [1, 32, 32]
0	0xbdddcae5	-0.10829715
1	0xbe907de2	-0.2822104
2	0xbe7ce6a8	-0.24697363
3	0xbde4bcdd	-0.11168835
4	0xbdb3f6ec	-0.08787331
5	0x3da0a1f6	0.078433916
6	0x3dc45491	0.09586442
7	0xbe56f8db	-0.20993368
8	0xbcf84667	-0.030307008
9	0x3e5ffc2c	0.2187354
10	0x3d93f8b8	0.07225174
11	0xbe80df81	-0.2517052
12	0x3e9b1b45	0.30294243
13	0x3e0a7c85	0.13524063
14	0xbe3e5640	-0.1858759
15	0x3d58a342	0.05289007
16	0x3df27021	0.11837793
17	0x3e82d415	0.2555243
18	0xbe79935c	-0.2437262
19	0xbe793ca5	-0.2433954
20	0xbe276dbc	-0.16350454
21	0x3e34b457	0.17646919
22	0x3d3ad041	0.045608763
23	0x3e2ef1b5	0.17084391
24	0x3e749fcb	0.23889081
25	0x3e12207a	0.14270201
26	0x3de45556	0.11149089
27	0x3e5f893b	0.21829693
28	0xbe92fbe0	-0.2870779
29	0x3c369900	0.0111448765
30	0xbe3a3a0d	-0.18186207
31	0xbe848cdb	-0.25888714
32	0x3d8cba3b	0.06871458
33	0x3e79aaa3	0.24381499
34	0x3c8a409b	0.01687651
35	0xbe837064	-0.25671685
36	0x3d95d862	0.07316662
37	0x3e0bf9f3	0.13669567
38	0xbced0abe	-0.028935786
39	0x3e5b4219	0.21411933
40	0x3da3db30	0.08000791
41	0xbe7915e7	-0.24324761
42	0xbe5de208	-0.21668255
43	0xbe8b4f4e	-0.27208942
44	0xbe8fd611	-0.28093007
45	0x3d5e72d5	0.05430873
46	0x3d738628	0.059454113
47	0x3e10d552	0.14143875
48	0xbe09e93f	-0.13467883
49	0xbc831643	-0.016001826
50	0x3de2f9b7	0.110827856
51	0x3e23e87a	0.16006652
52	0xbe536c0d	-0.20646687
53	0xbddefe9d	-0.108884074
54	0x3d5a614e	0.053315453
55	0xbe98ffdd	-0.29882708
56	0x3bfa8d1f	0.0076462175
57	0x3e7903e7	0.24317895
58	0x3e4e5f97	0.20153652
59	0xbe06e29a	-0.13172379
60	0xbd5ee167	-0.05441418
61	0xbda08e11	-0.07839597
62	0x3e40a164	0.18811566
63	0x3e69cab5	0.22831233
64	0xbe6cd3dd	-0.23127694
65	0xbe030b18	-0.127972
66	0xbe2b412c	-0.1672408
67	0x3e1191c6	0.14215764
68	0x3e20f3d8	0.15718019
69	0x3d973005	0.07382206
70	0xbda55dc4	-0.08074525
71	0xbe638a52	-0.22220734
72	0x3dee4707	0.11634641
73	0xbdb1fbfc	-0.0869064
74	0xbd5332ce	-0.051562123
75	0x3d83ba00	0.06431961
76	0xbe984adb	-0.2974461
77	0xbce9fb5c	-0.02856224
78	0x3e271812	0.16317776
79	0x3dfd0807	0.12355047
80	0x3cce1f56	0.025161427
81	0x3e23d476	0.15999016
82	0x3d416143	0.047211897
83	0x3e982e54	0.29722846
84	0x3e0b5e3a	0.13610163
85	0xbe96651d	-0.29374018
86	0xbe046bb0	-0.12931705
87	0x3e3c51c2	0.18390563
88	0xbe09acd2	-0.13444832
89	0x3dbadca4	0.09124115
90	0x3e3c44f1	0.18385674
91	0xbe917f42	-0.28417403
92	0xbe826d83	-0.25474176
93	0xbe99430d	-0.29933968
94	0x3cafd9ef	0.021466224
95	0xbddb309d	-0.107026316
96	0xbe688738	-0.22707832
97	0xbdeac0ba	-0.11462541
98	0xbe9b987d	-0.30389777
99	0xbdc5403a	-0.09631391
100	0x3e287554	0.16451007
101	0x3da9d7dd	0.08293126
102	0xbe06e24f	-0.13172267
103	0xbe937cf9	-0.28806284
104	0xbe4be94b	-0.19913213
105	0x3ca33685	0.019923458
106	0xbd9a8279	-0.07544417
107	0xbd638dbf	-0.0555551
108	0xbced43a0	-0.02896291
109	0xbe8c8d36	-0.27451485
110	0xbe48cdcf	-0.1960976
111	0xbdb88d00	-0.090112686
112	0x3d83e883	0.064408325
113	0x3e053e32	0.13012007
114	0x3e878427	0.26468012
115	0x3e14f39e	0.14546058
116	0x3dbbc9b9	0.09169335
117	0x3dd34668	0.10316163
118	0x3e1ea9e1	0.15494491
119	0xbe67cea6	-0.22637424
120	0xbe1ffbba	-0.1562337
121	0x3e5f0ba4	0.21781784
122	0x3e0bc222	0.13648275
123	0xbe70c850	-0.23513913
124	0xbe2856bc	-0.16439337
125	0x3e8dcad0	0.27693796
126	0xbc05c491	-0.008164541
127	0xbe573f8d	-0.21020336
128	0xbe282a49	-0.1642238
129	0x3e72e481	0.2371998
130	0x3e78ad09	0.24284758
131	0xbe1fdb34	-0.15610963
132	0x3e64f992	0.22360829
133	0x3d570e04	0.0525036
134	0x3e2263d9	0.15858401
135	0x3e0d3590	0.13789964
136	0x3d6d7c4a	0.05797986
137	0x3e505c3f	0.20347689
138	0xbd8c2f2a	-0.06844933
139	0xbdb9654f	-0.09052526
140	0x3d2fdf9c	0.04293786
141	0x3e3509c9	0.17679514
142	0x3d78fcbb	0.060787898
143	0x3df183f4	0.11792746
144	0x3e7c0b20	0.24613619
145	0xbd5bee21	-0.053693894
146	0xbdb1ae3b	-0.0867581
147	0x3e5e0db1	0.2168491
148	0xbd2abebd	-0.04168581
149	0xbd9bf33e	-0.07614754
150	0xbe0b80f4	-0.1362341
151	0xbe14e7a3	-0.14541487
152	0x3e18c7e8	0.14920008
153	0xbe5eac06	-0.21745309
154	0xbe026ddf	-0.12737225
155	0xbcf17495	-0.029474536
156	0x3e8c3972	0.27387577
157	0xbe098107	-0.13428126
158	0xbdce89c8	-0.100848734
159	0x3d44cda4	0.048047677
160	0x3e159454	0.14607364
161	0x3e0e4ece	0.13897249
162	0x3e11dda8	0.14244711
163	0x3e3900f4	0.1806677
164	0xbe180532	-0.14845732
165	0xbe37e7c5	-0.17959507
166	0x3e6cc709	0.23122801
167	0x3dabe254	0.08392778
168	0x3c811195	0.015755454
169	0x3e26e296	0.16297373
170	0xbe817c84	-0.2529031
171	0xbe89d8e8	-0.269233
172	0x3d636241	0.055513624
173	0xbc8ea293	-0.017411506
174	0x3de2b167	0.11068993
175	0xbe2d0006	-0.1689454
176	0xbe433be4	-0.19065815
177	0xbe62c0f2	-0.22143915
178	0x3d49da14	0.04928024
179	0x3e8493d9	0.2589405
180	0xbe73939e	-0.2378678
181	0x3deaf33a	0.11472173
182	0x3d01aeae	0.03166073
183	0xbe6b3d9a	-0.22972718
184	0x3e0cf2a6	0.13764438
185	0xbe2e4b4b	-0.1702091
186	0x3e0de2da	0.13856068
187	0xbb153e1e	-0.002277262
188	0xbe4ff6f1	-0.20309044
189	0x3e54e34f	0.20789836
190	0xbe85dc5c	-0.26144683
191	0x3e2e6319	0.1702999
192	0xbd160b8e	-0.036632113
193	0x3e0ef5f5	0.13961013
194	0x3e98e29c	0.2986039
195	0xbd958996	-0.07301633
196	0x3e6522bb	0.2237653
197	0xbdc317d5	-0.0952603
198	0x3e207899	0.15671004
199	0x3e6dfa61	0.23240043
200	0xbe8ae5c5	-0.27128425
201	0xbe2c35b8	-0.16817367
202	0x3d13b6fc	0.03606318
203	0xbc434eec	-0.011920672
204	0x3df27fe7	0.11840802
205	0xbe0198fc	-0.12656015
206	0x3d204c91	0.03913552
207	0x3e39392a	0.18088213
208	0xbcb32e94	-0.021872796
209	0x3e61ad16	0.22038683
210	0x3dc54c63	0.0963371
211	0xbe220305	-0.15821464
212	0x3d92bb33	0.07164612
213	0x3e5ee44c	0.21766776
214	0x3e05f02d	0.13079901
215	0x3ea69ca1	0.32541373
216	0x3e98eda2	0.298688
217	0xbad5be29	-0.0016307282
218	0xbe749a5c	-0.23887008
219	0xbe7e8e94	-0.24859077
220	0xbe9bb7f2	-0.30413777
221	0xbe4981af	-0.19678377
222	0x3d2a0963	0.041512858
223	0x3dc43bd5	0.095817246
224	0x3e78093a	0.2422227
225	0x3a0b277c	0.0005308313
226	0x3e49f900	0.19723892
227	0x3d28f54b	0.041249555
228	0x3d8e192e	0.069383964
229	0xbe5fe51d	-0.21864744
230	0xbe9083fc	-0.28225696
231	0x3e4d496c	0.2004754
232	0xbcddf899	-0.02709608
233	0xbe98122d	-0.29701367
234	0xbe01b999	-0.12668456
235	0x3d4f5e04	0.05062677
236	0x3dd636ec	0.10459694
237	0xbe9b822a	-0.30372745
238	0x3e9387f5	0.28814664
239	0x3dad26b1	0.084546454
240	0x3e9d6f96	0.30749196
241	0x3d90f9b2	0.070788756
242	0xbd244f43	-0.040114652
243	0x3e38ff41	0.18066122
244	0x3e6fd123	0.23419623
245	0x3d79e6f3	0.061011266
246	0xbe69cac8	-0.22831261
247	0xbcb3016a	-0.02185126
248	0x3c5b660f	0.013391032
249	0x3da21216	0.07913606
250	0x3e813d9a	0.2524231
251	0x3d08aaa1	0.03336585
252	0xbe00a2a8	-0.12562048
253	0xbd01aa37	-0.03165647
254	0x3d7d7269	0.06187669
255	0xbc77bcf9	-0.015120738

convs.1.root f4 [32, 32]
0	0x3de9f76d	0.11424146
1	0xbd82faa0	-0.06395459
2	0x3e9123d3	0.28347644
3	0xbd073926	-0.033013485
4	0xbe68dca4	-0.22740418
5	0xbdf50ca2	-0.119653
6	0xbd027526	-0.031850003
7	0xbe6ded0c	-0.23234957
8	0x3ccdb434	0.025110342
9	0xbe9a025e	-0.3007993
10	0xbcec1d8e	-0.028822687
11	0x3d9691e2	0.07352044
12	0x3e2b9514	0.16756088
13	0x3e9b6cbe	0.303564
14	0x3e6bda31	0.23032452
15	0x3e702356	0.2345098
16	0x3e17a736	0.1480988
17	0x3d5a4d80	0.053296566
18	0xbe814b42	-0.2525273
19	0xbe535764	-0.20638806
20	0xbcc7f116	-0.02440695
21	0xbd8bf024	-0.068329126
22	0xbdf56ac6	-0.11983256
23	0x3e4ed73b	0.20199291
24	0x3e5f8f2a	0.21831957
25	0x3d2d56be	0.042319052
26	0xbe719f71	-0.23595978
27	0x3df2aef9	0.1184978
28	0x3d7b0fda	0.061294414
29	0xbe1cf5fc	-0.1532821
30	0x3e9ad095	0.3023726
31	0xbe93b653	-0.2885004
32	0xbd81747e	-0.06321047
33	0xbe131a38	-0.1436547
34	0x3e7c17c9	0.24618448
35	0xbe8cce6e	-0.27501243
36	0x3c887845	0.016658911
37	0xbe3ec30d	-0.18629093
38	0x3dc7aced	0.0974978
39	0xbe3671ca	-0.17816845
40	0x3dd7c295	0.105351605
41	0x3e521835	0.20517047
42	0xbc25b076	-0.010112872
43	0x3d8c1e29	0.0684169
44	0xbd3e2446	-0.04642131
45	0x3e022784	0.12710387
46	0x3e369b66	0.17832717
47	0x3e7b8ce3	0.24565463
48	0xbdadb17d	-0.08481119
49	0x3e145dd0	0.14488912
50	0xbcb15ee6	-0.021651696
51	0x3dd839df	0.10557913
52	0xbd70643e	-0.05868935
53	0x3e838b51	0.25692227
54	0xbd2e2181	-0.04251242
55	0x3e6e2c95	0.23259194
56	0xbe6a00b3	-0.22851829
57	0x3c174512	0.009232776
58	0xbd960acb	-0.07326277
59	0xbdd86d85	-0.10567764
60	0x3e51cf03	0.20489125
61	0x3dccf064	0.100067884
62	0xbe8583f3	-0.26077232
63	0x3dd0aeb7	0.10189574
64	0x3e1ee3d1	0.15516593
65	0xbdec103a	-0.115265325
66	0xbdd663b8	-0.104682386
67	0x3e22d8ec	0.15903062
68	0xbe9263b6	-0.28591698
69	0xbe507904	-0.20358664
70	0xbd2b35f1	-0.04179949
71	0x3df130d9	0.11776895
72	0xbea2fe80	-0.31834793
73	0xbe694723	-0.22781043
74	0x3e8f0834	0.27935946
75	0xbe71c316	-0.23609576
76	0xbdf49437	-0.11942332
77	0x3c9d4332	0.01919708
78	0x3df41b7f	0.11919307
79	0xbe948670	-0.29008818
80	0x3d41a7ef	0.047279295
81	0xbe8ebd96	-0.27879018
82	0x3e9793f7	0.29605076
83	0xbd7a5d9f	-0.06112444
84	0xbe22e618	-0.15908086
85	0x3c2e94a8	0.01065556
86	0xbc8e795a	-0.01739185
87	0xbe48c785	-0.1960736
88	0xbe3cec4f	-0.1844952
89	0x3e8a8638	0.27055526
90	0xbe0649b7	-0.13114057
91	0x3e8041f4	0.25050318
92	0xbdb9a6b5	-0.09065
93	0xbcb88155	-0.022522608
94	0xbc636f57	-0.013881526
95	0xbd0d3d69	-0.034482393
96	0xbe1bbb53	-0.15208177
97	0x3e701aec	0.2344777
98	0xbe40c5ad	-0.18825407
99	0x3ea15190	0.3150754
100	0x3de104f3	0.10987272
101	0x3b2ec134	0.002666545
102	0x3ea06307	0.31325552
103	0xbe66e056	-0.22546515
104	0xbe7f139f	-0.24909829
105	0x3e17dd80	0.1483059
106	0xbd5079c3	-0.05089737
107	0x3e42ce4c	0.19024009
108	0xbe9885e1	-0.29789641
109	0x3d4ad013	0.04951484
110	0xbe0e5efd	-0.13903423
111	0x3dc593c8	0.09647328
112	0x3e9da7c1	0.3079205
113	0xbe16b95c	-0.14719146
114	0x3e138403	0.14405827
115	0xbd93b6e2	-0.072126165
116	0xbd8a96fe	-0.06767081
117	0x3d9eea75	0.07759563
118	0xbd1c49ae	-0.038156204
119	0xbdeded08	-0.11617476
120	0xbe69cd17	-0.22832142
121	0x3d0074d5	0.03136142
122	0xbd92872a	-0.07154687
123	0x3e728789	0.23684515
124	0xbd19f75a	-0.03758941
125	0xbe37c3a5	-0.17945726
126	0xbd7d502c	-0.061844036
127	0xbcd27949	-0.025692599
128	0xbd8f459b	-0.06995698
129	0x3dc9ba0e	0.0984994
130	0x3e7d3b57	0.24729668
131	0xbd36ba31	-0.04461116
132	0xbd924ce3	-0.07143571
133	0x3e48af6d	0.1959817
134	0xbda708bf	-0.08155965
135	0x3dd6f754	0.10496393
136	0x3c1e2309	0.009651908
137	0x3d810b0c	0.06300935
138	0xbd77ac25	-0.060466904
139	0x3e8bb9e1	0.27290252
140	0xbe87ca14	-0.2652136
141	0xbdbad185	-0.09121994
142	0x3e89907a	0.2686804
143	0xbe8301f9	-0.25587443
144	0x3d36b1de	0.04460322
145	0xbe650a85	-0.22367294
146	0x3e199f7f	0.15002249
147	0xbe83d199	-0.25745848
148	0xbe23cbfb	-0.15995781
149	0xbd8466df	-0.064649336
150	0x3e7621e5	0.24036367
151	0xbe5447cb	-0.20730512
152	0xbd98fdad	-0.0747026
153	0xbddbea32	-0.107380286
154	0xbe21be85	-0.15795334
155	0xbced889f	-0.02899581
156	0x3ce51bd2	0.027967367
157	0xbe1275a9	-0.14302696
158	0x3e7dffbf	0.2480459
159	0xbe7fb29b	-0.24970476
160	0x3e2cf3e1	0.16889907
161	0x3e7122d7	0.23548447
162	0xbd0433ff	-0.03227615
163	0xbe0be503	-0.1366158
164	0xbce70221	-0.028199257
165	0xbe773c3c	-0.24144071
166	0xbe6cafc1	-0.2311392
167	0xbe165b2f	-0.14683221
168	0xbe6b1ac2	-0.22959426
169	0xbde6b4a3	-0.112649225
170	0x3e33005f	0.1748061
171	0xbc258eea	-0.010104874
172	0x3ea37043	0.31921586
173	0xbdf1abec	-0.118003696
174	0xbea2460c	-0.31694067
175	0xbea458db	-0.3209904
176	0xbea2d08c	-0.31799734
177	0x3d703427	0.058643486
178	0xbe16ac8e	-0.14714262
179	0x3d8a122a	0.06741746
180	0x3e70f4a0	0.23530817
181	0x3d05e5a5	0.03268971
182	0x3cf8c087	0.030365242
183	0x3cb57c8f	0.02215412
184	0x3ccd1c04	0.025037773
185	0x3e5ac7ad	0.21365233
186	0x3c8e4b2d	0.017369831
187	0xbd337dde	-0.04382121
188	0x3e340720	0.17580843
189	0x3c578570	0.013154373
190	0x3d0a1966	0.033715628
191	0x3e1f6850	0.15567136
192	0x3e36e937	0.17862402
193	0xbe8491e0	-0.25892544
194	0xbcc4e413	-0.024034536
195	0xbd983c3b	-0.07433363
196	0x3e37320f	0.1789019
197	0xbe4394fb	-0.190998
198	0x3e617b63	0.22019725
199	0xbe9af967	-0.30268404
200	0x3e99a4c1	0.3000851
201	0xbe15cef4	-0.14629728
202	0xbc83d4e6	-0.016092729
203	0xbe7721b3	-0.24133949
204	0xbe52b6e6	-0.20577583
205	0xbe46e626	-0.19423732
206	0xba9d6c8a	-0.0012010497
207	0x3df64cfc	0.12026402
208	0xbda87dda	-0.08227129
209	0xbdde8e9c	-0.10867044
210	0x3ea44ea2	0.32091242
211	0x3ba90a98	0.0051587336
212	0xbddda8a8	-0.10823184
213	0xbe8afbd5	-0.27145258
214	0x3e85bc0a	0.26120025
215	0xbe59decd	-0.21276398
216	0x3e8244dd	0.25443164
217	0x3d03e9fb	0.032205563
218	0xbcab53f4	-0.020914055
219	0xbe916c72	-0.2840305
220	0x3dce1a97	0.10063665
221	0x3e2ec090	0.17065644
222	0x3d24f1c7	0.04026964
223	0x3e0be362	0.13660958
224	0xbe3c6706	-0.18398675
225	0xbe957f93	-0.29198894
226	0xbe4fa47e	-0.20277593
227	0x3ca7b3a4	0.020471402
228	0x3e3f37e6	0.18673667
229	0xbe717abc	-0.23581976
230	0x3ddaec8f	0.10689651
231	0x3ccef785	0.02526451
232	0xbe32db01	-0.17466356
233	0x3d0d98af	0.03456944
234	0xbd89fbe7	-0.067375
235	0xbca4d659	-0.02012174
236	0x3e359226	0.17731532
237	0x3d406663	0.046972644
238	0xbea9b3dd	-0.33145037
239	0xbe699f5a	-0.22814694
240	0xbe20f4b7	-0.15718351
241	0xbdf86ba0	-0.12129903
242	0x3d358681	0.044317726
243	0xbe62e938	-0.22159278
244	0xbd154028	-0.036438137
245	0xbe40415f	-0.18774937
246	0x3dcff63e	0.10154389
247	0xbe47bac1	-0.19504835
248	0xbe545fc6	-0.2073966
249	0xbd8f1552	-0.069864884
250	0x3d892e18	0.06698245
251	0xbbcf105e	-0.00631909
252	0x3e4a518d	0.19757672
253	0x3e90010d	0.28125802
254	0x3da67828	0.08128387
255	0x3e0d2a28	0.13785613

convs.1.bias f4 [32]
0	0xb85fec04	-5.338715e-05
1	0xbc119d4f	-0.008887603
2	0x3c4d3592	0.012524979
3	0x3ccb77f0	0.024837464
4	0x3b66405d	0.0035133578
5	0xbc4b3966	-0.012403822
6	0x3d01b0cd	0.03166275
7	0x3cf06dfc	0.02934932
8	0xbca24344	-0.019807465
9	0xbbdc2c2e	-0.006719134
10	0xbcaeb53a	-0.02132665
11	0xbd1080b9	-0.03527901
12	0xbca9cd24	-0.020727701
13	0xbcd6e346	-0.02623142
14	0x3ce66291	0.028123172
15	0x3c86b3b7	0.016443117
16	0x3ccfe6ad	0.02537855
17	0xbc9261f7	-0.017868979
18	0xbb71d596	-0.0036900989
19	0xbd452502	-0.048130997
20	0xbce5f30d	-0.028069997
21	0x3c0a7f09	0.008453139
22	0xbceab612	-0.028651271
23	0x3cfec98d	0.031101966
24	0x3ce5eaa3	0.028065985
25	0x3c4b1a61	0.012396426
26	0xbc88e94d	-0.016712809
27	0x3cd46478	0.025926813
28	0xbc7d2bcb	-0.015452336
29	0x3b64dd9a	0.0034922124
30	0x3d3c34e3	0.045948874
31	0xbbb14f8b	-0.0054110936

convs.2.weight f4 [1, 32, 32]
0	0x3dfea0ac	0.124329895
1	0xbe7804cc	-0.2422058
2	0x3e03cba9	0.12870659
3	0x3d3a7cd0	0.045529187
4	0xbd009cd9	-0.03139958
5	0x3e76f900	0.24118423
6	0x3e5fa21f	0.21839188
7	0xbe6ac639	-0.22927178
8	0x3e63a958	0.22232568
9	0xbe23fdac	-0.16014737
10	0x3e5910dc	0.21197838
11	0x3e40b6a8	0.18819678
12	0x3e61bcdf	0.22044705
13	0xbdf26057	-0.118347816
14	0x3e0fd76e	0.14047024
15	0xbe652c5a	-0.223802
16	0x3e325f6e	0.17419216
17	0x3ddb5dbc	0.10711238
18	0xbdc82e21	-0.097744234
19	0x3d5a7763	0.053336512
20	0xbd9345c8	-0.07191044
21	0xbe89239e	-0.26784986
22	0xbd949169	-0.07254297
23	0xbe8b67f5	-0.2722775
24	0x3e1f709c	0.15570301
25	0xbe489ec0	-0.19591808
26	0xbea03d35	-0.31296697
27	0x3e643444	0.22285563
28	0x3d4e8f5f	0.050429698
29	0x3e1d846c	0.15382546
30	0xbe30bc25	-0.17259271
31	0xbe51cf34	-0.20489198
32	0xbe700cd1	-0.23442389
33	0xbe843849	-0.25824192
34	0x3e92edf1	0.2869716
35	0x3dcdcc8a	0.10048778
36	0x3e166891	0.14688326
37	0xbc809e47	-0.015700473
38	0xbdd1ea93	-0.102498196
39	0xbe8dcbab	-0.2769445
40	0xbe665078	-0.22491634
41	0xbe4ea553	-0.20180254
42	0xbe98f896	-0.29877156
43	0xbdf8ce37	-0.12148707
44	0xbdfe5754	-0.12419
45	0x3e28a1b6	0.16467938
46	0xbe88ebc5	-0.26742378
47	0x3c3b56bc	0.011434253
48	0x3d07e3ef	0.03317636
49	0xbe5a4f61	-0.21319343
50	0x3e937e92	0.28807503
51	0x3d9830bb	0.074311696
52	0x3e3d8841	0.18509008
53	0xbe6b4961	-0.2297721
54	0x3e8cbc69	0.27487496
55	0x3df952de	0.12174009
56	0x3e704ba0	0.23466349
57	0x3d0a8ff9	0.03382871
58	0x3d66baf5	0.05633064
59	0x3e62c72e	0.22146294
60	0x3e652d26	0.22380504
61	0x3e8affef	0.27148387
62	0x3e112580	0.14174461
63	0xbe0b858c	-0.13625163
64	0x3e80b476	0.2513768
65	0xbce12d34	-0.027487375
66	0x3d888153	0.06665292
67	0xbda1040c	-0.078621
68	0x3ea9b1b2	0.33143383
69	0xbe4ea31d	-0.2017941
70	0xbe34213d	-0.17590804
71	0xbd39cf58	-0.045363754
72	0xbb1d626a	-0.0024014958
73	0xbe7c6ff7	-0.24652086
74	0x3dc18f67	0.0945118
75	0xbd669d91	-0.05630261
76	0xbe8e8441	-0.27835277
77	0x3e8ca415	0.27468935
78	0x3e7a6674	0.24453145
79	0x3e1430a7	0.14471684
80	0x3e0e75c4	0.13912112
81	0x3e2c0fa0	0.16802835
82	0x3bc38385	0.005966606
83	0xbe34e3cc	-0.17665023
84	0xbe07e267	-0.1326996
85	0xbd0a5361	-0.033770923
86	0x3d3e4b8f	0.046458777
87	0xbe688233	-0.22705917
88	0x3d949f45	0.07256941
89	0x3e7d465e	0.24733874
90	0xbe8d5fd2	-0.27612168
91	0x3e328b7e	0.17436025
92	0xbc17921c	-0.009251144
93	0x3d9142d1	0.07092822
94	0x3e4bcc36	0.19902119
95	0x3d36c7c6	0.044624113
96	0xbe38c172	-0.18042544
97	0x3d5d002c	0.053955242
98	0xbd7a951b	-0.061177354
99	0x3e87a769	0.2649491
100	0xbe084127	-0.13306104
101	0x3e978cf4	0.29599726
102	0x3a9f3db6	0.0012149129
103	0xbe1a6c54	-0.15080386
104	0x3e1546a9	0.14577736
105	0xba97146d	-0.0011526473
106	0x3e2e20ca	0.17004696
107	0x3dad8554	0.08472696
108	0x3cfb578d	0.030681396
109	0x3e10d760	0.14144659
110	0xbe8a066a	-0.2695802
111	0x3dff07ed	0.124526836
112	0x3db11480	0.08646488
113	0xbdc6b5ad	-0.09702621
114	0x3e7c1b47	0.2461978
115	0xbe9e4ea9	-0.30919388
116	0x3e4447f5	0.19168074
117	0x3d28a857	0.041176166
118	0xbe030823	-0.12796073
119	0x3e5057cf	0.20345996
120	0x3c144a94	0.009050984
121	0xbd93f555	-0.07224528
122	0x3ea0eec5	0.31432167
123	0xbdbdfe23	-0.09276988
124	0x3e7d1978	0.24716747
125	0xbd4302e0	-0.047610164
126	0xbe6e0e7e	-0.23247716
127	0xbaf485ff	-0.0018655657
128	0xbe5b22c6	-0.21399984
129	0x3e8e5f98	0.27807307
130	0x3e0e8ddb	0.13921301
131	0x3e00d537	0.12581335
132	0x3e98ea51	0.2986627
133	0x3e3ecda7	0.18633138
134	0x3dbe2edf	0.09286284
135	0x3dfd15df	0.12357687
136	0x3e4b4d97	0.19853817
137	0x3e5dfbf3	0.21678142
138	0xbe37c133	-0.17944793
139	0xbe0700e1	-0.13183929
140	0x3e8eda2f	0.27900836
141	0x3cc5c6e2	0.024142686
142	0x3e866989	0.26252392
143	0x3d8304f9	0.06397433
144	0xbe3713c2	-0.17878631
145	0x3d2a66d5	0.041601975
146	0x3d7196ed	0.058981825
147	0xbd1ad1ec	-0.037797853
148	0x3d06263a	0.0327513
149	0xbe16431a	-0.14674035
150	0x3e8d66b3	0.27617416
151	0xbe6a652d	-0.22890158
152	0xbe049782	-0.1294842
153	0x3dfb3adb	0.12267085
154	0xbe9ddb94	-0.30831587
155	0xbe343352	-0.17597702
156	0x3e92271c	0.28545463
157	0xbe4fae5a	-0.20281354
158	0xbe1b2f28	-0.15154707
159	0x3e12ce11	0.1433642
160	0x3cdadce6	0.02671666
161	0x3d21b3bf	0.03947806
162	0x3e1ebc22	0.15501454
163	0x3c65d506	0.0140278395
164	0xbcfd59df	-0.030926643
165	0x3d6b1a28	0.05739799
166	0x3d2d75cf	0.04234868
167	0x3e8c9dd6	0.2746417
168	0xbcb5cc29	-0.022192078
169	0x3e877f50	0.2646432
170	0xbe0e7aa4	-0.13913971
171	0x3d108f3a	0.03529284
172	0xbe78ada4	-0.24284989
173	0x3e68533f	0.22688006
174	0x3e10a5d5	0.1412576
175	0x3e671968	0.22568285
176	0xbe2a5205	-0.1663285
177	0xbe7d0285	-0.24707992
178	0x3da58b98	0.08083266
179	0xbda07c9e	-0.07836269
180	0xbde85bb4	-0.11345616
181	0x3d87514b	0.06607302
182	0x3e10efc6	0.14153966
183	0xbd476263	-0.048677813
184	0xbe0d15b2	-0.13777807
185	0x3e534515	0.20631821
186	0xbe1c7a06	-0.15280923
187	0xbe830db9	-0.25596407
188	0x3ddd03ff	0.10791778
189	0x3e860c9e	0.261815
190	0xbdb36eac	-0.08761343
191	0xbe5ae77b	-0.21377365
192	0xbc5faa5a	-0.013651455
193	0xbe611968	-0.21982348
194	0xbe0df367	-0.13862382
195	0xbe8de174	-0.2771107
196	0x3e16b083	0.14715771
197	0xbe22d0f8	-0.15900028
198	0x3ea19150	0.31556177
199	0xbe98f865	-0.2987701
200	0x3d9a0720	0.0752089
201	0xbe74173c	-0.23836988
202	0x3e414601	0.1887436
203	0xbde94869	-0.11390764
204	0x3e8400ee	0.2578196
205	0x3c7bf3ca	0.015377948
206	0x3cf0f580	0.029413939
207	0x3e8f435c	0.2798108
208	0x3dd82126	0.105531976
209	0x3e986719	0.29766157
210	0xbcea59fc	-0.028607361
211	0x3dfab1e7	0.122409634
212	0x3e57b24d	0.2106411
213	0xbdcee07d	-0.101014115
214	0xbd14ed00	-0.036358833
215	0x3dd10d8d	0.10207663
216	0xbe09a54f	-0.13441966
217	0x3e4057fc	0.18783563
218	0xbdfdb8b8	-0.12388748
219	0xbe72cdb0	-0.23711276
220	0x3e124ace	0.14286348
221	0xbdc69d60	-0.09697986
222	0xbe8524f9	-0.2600477
223	0xbda27fc3	-0.07934525
224	0xbe915a6f	-0.28389308
225	0xbda3c650	-0.079968095
226	0xbe764c43	-0.24052529
227	0x3dc94d43	0.0982919
228	0xbe802151	-0.25025418
229	0xbe86005e	-0.26172155
230	0x3e23c99d	0.15994878
231	0xbde1533c	-0.11002204
232	0x3e479fc4	0.1949454
233	0x3e465995	0.1937011
234	0x3d1aeb88	0.037822276
235	0xbe013a8d	-0.12619992
236	0x3e77831f	0.24171112
237	0x3d35a7e0	0.04434955
238	0xbdb7695c	-0.089556426
239	0xbdf77aeb	-0.120839916
240	0x3d283c0c	0.04107289
241	0xbd862f73	-0.06552019
242	0x3dc7f820	0.09764123
243	0xbe3708ec	-0.17874497
244	0x3e89fa48	0.26948762
245	0xbe56ee54	-0.20989352
246	0xbd48ac57	-0.04899248
247	0x3dff448f	0.124642484
248	0x3df334a1	0.118752725
249	0xbdcda1d3	-0.10040631
250	0xbde73f0e	-0.112913236
251	0xbe8979a8	-0.2685063
252	0xbe9ae292	-0.30250984
253	0x3e6db093	0.23211889
254	0x3e8f264f	0.27958915
255	0x3cd3b817	0.025844617

convs.2.root f4 [32, 32]
0	0x3d97357b	0.073832475
1	0x3c7dd352	0.015492277
2	0x3d3c2660	0.045935035
3	0x3e478fa0	0.19488382
4	0xbe29db16	-0.16587481
5	0xbe9827e0	-0.29717922
6	0xbd521742	-0.05129171
7	0xbe0aa5c0	-0.13539791
8	0xbe3b324a	-0.18280903
9	0x3e322600	0.17397308
10	0x3de5f43c	0.11228225
11	0x3e87ebdd	0.26547137
12	0x3daa2745	0.08308271
13	0xbd9bc1f6	-0.076053545
14	0x3e9351c1	0.2877331
15	0xbe7626f5	-0.24038298
16	0x3cee1e92	0.029067311
17	0x3e6ea1a9	0.23303856
18	0xbdf4cbe8	-0.119529545
19	0x3e0aef6e	0.13567898
20	0xbea1d983	-0.3161126
21	0xbe73c35e	-0.23804995
22	0xbe779afc	-0.24180216
23	0xbdaa1785	-0.08305267
24	0xbdb8040e	-0.08985148
25	0x3e3b2f0c	0.18279666
26	0xbe9a0d29	-0.30088165
27	0x3ea03cd4	0.31296408
28	0x3dac25cb	0.08405646
29	0xbe5ff4d7	-0.21870743
30	0x3e19b20a	0.15009323
31	0x3e01a8e0	0.12662077
32	0xbd9fe4d2	-0.07807316
33	0x3d41595e	0.047204368
34	0x3e3c92b5	0.1841534
35	0x3c38713e	0.011257468
36	0x3e9a6229	0.30153015
37	0x3e1dc342	0.15406516
38	0x3d397a55	0.04528268
39	0xbe013352	-0.12617233
40	0x3e4efef4	0.20214444
41	0xbe74cf1d	-0.23907132
42	0x3e018cb1	0.12651326
43	0x3d8fe5b9	0.07026238
44	0xbdbd3f94	-0.09240642
45	0x3df9eb5d	0.12203095
46	0xbe8e199b	-0.2775391
47	0x3e947948	0.2899878
48	0x3db2365c	0.087017745
49	0xbbd8bd92	-0.0066143954
50	0xbe969b6e	-0.29415458
51	0xbe179a7b	-0.14805023
52	0x3e96448d	0.29349175
53	0xbddafba5	-0.10692529
54	0xbd8057c2	-0.062667385
55	0x3e82f312	0.25576073
56	0x3e67ec82	0.22648814
57	0x3e920509	0.28519467
58	0x3e1d186d	0.15341349
59	0x3e405feb	0.1878659
60	0xbe226431	-0.15858532
61	0x3e26bdbf	0.1628332
62	0x3e206ae0	0.1566577
63	0x3e0098a0	0.12558222
64	0xbea48679	-0.32133844
65	0x3e6196ed	0.2203023
66	0xbe0d17b2	-0.1377857
67	0xbe3d0d7c	-0.18462175
68	0xbd4c0fea	-0.049819864
69	0xbbdb086a	-0.0066843526
70	0xbe17d197	-0.14826046
71	0xbd9d1250	-0.076695085
72	0x3d3b35a8	0.045705467
73	0x3e3c451d	0.1838574
74	0xbe186988	-0.14884007
75	0x3be8b4b1	0.007101618
76	0x3e611780	0.21981621
77	0xbe6fe06b	-0.23425452
78	0xbc1700a0	-0.009216458
79	0x3d77af83	0.060470115
80	0x3e5ca636	0.2154778
81	0xbe90e9e5	-0.28303447
82	0xbd17a4d2	-0.03702242
83	0xbe401a65	-0.18760069
84	0xbdbd8c1b	-0.092552386
85	0x3e881044	0.2657491
86	0xbe2e71d6	-0.17035612
87	0xbe18cfd9	-0.14923038
88	0xbe19f7ac	-0.15035886
89	0xbe7fab68	-0.2496773
90	0x3d237b50	0.03991252
91	0xbe155a48	-0.14585221
92	0x3de0d3b4	0.10977879
93	0xbe9fa95f	-0.31183907
94	0xbe497197	-0.19672237
95	0x3c893a7f	0.016751526
96	0xbe4787d8	-0.19485414
97	0xbe0b2fd7	-0.13592468
98	0x3e3b9478	0.18318355
99	0x3e8a0fd1	0.26965192
100	0xbde6849f	-0.11255764
101	0x3e6dadba	0.23210803
102	0x3dfb23f8	0.1226272
103	0xbdeca35a	-0.11554594
104	0xbd73a9ef	-0.059488233
105	0xbe7bbbef	-0.2458341
106	0xbd3506dd	-0.044196
107	0x3e59ef46	0.21282682
108	0xbe4a3263	-0.19745784
109	0x3da3a2b4	0.079900175
110	0xbd404163	-0.046937358
111	0xbe67fc28	-0.22654784
112	0xbe0908d1	-0.1338227
113	0xbbd90a5f	-0.006623551
114	0xbe7a7b9e	-0.24461219
115	0x3e527638	0.2055291
116	0xbe13094b	-0.14359014
117	0xbe345e1e	-0.17614028
118	0xbcc1b6db	-0.023646763
119	0x3e334174	0.17505437
120	0x3e91f2ea	0.2850564
121	0x3c4f2ea6	0.012645399
122	0x3aec33e6	0.0018020838
123	0xbe68e275	-0.22742637
124	0xbeae4a34	-0.34040987
125	0x3d4f291e	0.05057632
126	0xbe650988	-0.22366917
127	0x3d797fdf	0.060912963
128	0xbe8e0819	-0.27740553
129	0xbe268006	-0.16259775
130	0xbe96952e	-0.2941069
131	0x3d39e72f	0.04538649
132	0xbe6978e0	-0.22800016
133	0xbda7ab2a	-0.08186944
134	0xbe86d370	-0.2633319
135	0x3db5ceb0	0.08877313
136	0x3da05752	0.07829155
137	0x3e690c14	0.22758514
138	0xbe68dad6	-0.2273973
139	0xbe22ba58	-0.15891397
140	0x3dfe1e0b	0.12408074
141	0x3e855be7	0.26046678
142	0xbe691e23	-0.22765402
143	0xbe6fb339	-0.23408212
144	0xbe997e96	-0.2997939
145	0x3e321650	0.17391324
146	0xbdc38e00	-0.09548569
147	0x3b801b3d	0.003909497
148	0xbd7f50b1	-0.062332813
149	0x3e51f794	0.205046
150	0xbd9daecd	-0.07699356
151	0x3e0c248a	0.13685814
152	0x3da9ba8a	0.08287533
153	0xbe934607	-0.28764364
154	0x3d4b48fa	0.049630143
155	0x3da68659	0.081310935
156	0xbe2796a7	-0.16366063
157	0x3d2e7852	0.042595215
158	0x3db59cbe	0.08867787
159	0xbe251d6f	-0.1612451
160	0x3ea99938	0.3312471
161	0xbe9420e9	-0.28931358
162	0xbb75132b	-0.0037395458
163	0x3e8cf763	0.2753249
164	0x3e2d0d0e	0.16899511
165	0x3d312bb4	0.04325457
166	0xbe83469f	-0.25639817
167	0xbe1e6c4f	-0.15471004
168	0xbded0b74	-0.1157445
169	0x3e0dc2ef	0.13843893
170	0xbd6f42c3	-0.05841328
171	0xbe97c5a8	-0.29642987
172	0x3e26dd6c	0.16295403
173	0xbdd07991	-0.10179437
174	0x3da6952a	0.081339195
175	0x3cd5a969	0.026081758
176	0x3dc43bc5	0.09581713
177	0xbc2a8b4f	-0.01040919
178	0x3ce137ae	0.02749237
179	0x3cd9975c	0.026561432
180	0xbe09a53c	-0.13441938
181	0x3e83511b	0.25647816
182	0x3e65af05	0.22430046
183	0xbe6f91ff	-0.23395537
184	0xbca23b00	-0.019803524
185	0xbe5748e1	-0.21023895
186	0x3cb46f76	0.022025805
187	0xbd703e26	-0.05865302
188	0xbe8b2178	-0.27173972
189	0x3e5f72ef	0.21821187
190	0x3ea0e386	0.31423587
191	0x3dd26c96	0.102746174
192	0xbc73087f	-0.014833569
193	0xbe2547e5	-0.16140707
194	0xbe8c9f3d	-0.2746524
195	0x3d2ea95e	0.04264199
196	0xbda78da6	-0.08181314
197	0x3d4bd1f3	0.04976077
198	0x3e522609	0.20522322
199	0xbe8851d8	-0.26624942
200	0xbdb39fa1	-0.08770681
201	0xbe7972bc	-0.24360174
202	0xbe6d31d8	-0.23163545
203	0xbdd8320b	-0.1055642
204	0xbe80aedf	-0.25133416
205	0xbd4f4613	-0.050603937
206	0x3d8139b3	0.063098334
207	0x3eafb011	0.34314016
208	0x3e882178	0.26588035
209	0xbe817be3	-0.2528983
210	0xbe7f610b	-0.24939363
211	0x3e1aa3b0	0.15101504
212	0xbe5a2a91	-0.213053
213	0x3e194c1d	0.14970441
214	0x3d0c7841	0.03429437
215	0x3d03db0b	0.032191318
216	0xbcd3d9a6	-0.025860619
217	0x3d60afa8	0.05485502
218	0x3de863af	0.11347138
219	0xbdf47f31	-0.11938322
220	0x3cb0fb3e	0.021604177
221	0x3e1add39	0.15123452
222	0xbd00a237	-0.0314047
223	0xbe035f52	-0.1282933
224	0x3e8b1513	0.27164516
225	0xbdf716ac	-0.12064871
226	0xbe5c2753	-0.21499376
227	0x3e73da62	0.23813775
228	0xbe37d202	-0.17951205
229	0xbe8d0b71	-0.27547792
230	0xbdf2c8b6	-0.11854689
231	0xbc42102a	-0.011844674
232	0xbe747d7e	-0.23875996
233	0x3db663dc	0.089057654
234	0x3dc0ca42	0.094135776
235	0x3e8121b7	0.25221035
236	0xbd1f23d6	-0.038852535
237	0xbdf906f3	-0.121595286
238	0xbe83d96a	-0.2575181
239	0xbdc17175	-0.09445468
240	0xbd5717bc	-0.05251287
241	0xbe30fbc5	-0.17283542
242	0x3d45664e	0.04819327
243	0x3e80bc81	0.25143817
244	0x3e596bc3	0.21232514
245	0xbe038eb7	-0.1284741
246	0x3e4b7225	0.19867761
247	0xbe309e22	-0.17247823
248	0x3d49df39	0.049285147
249	0xbdc03c8f	-0.09386551
250	0xbd1f7887	-0.038933303
251	0xbe9412f2	-0.28920704
252	0xbe3ccdb9	-0.18437852
253	0xbddd6158	-0.108095825
254	0x3e5379ce	0.20651934
255	0x3e6fb871	0.23410203

convs.2.bias f4 [32]
0	0xbccd5472	-0.02506468
1	0xbc7f6422	-0.015587838
2	0xbd4f76f2	-0.050650544
3	0xbcaf90a6	-0.021431278
4	0xbd0f1ce2	-0.034939654
5	0xbd0b9e4f	-0.03408652
6	0x3d117087	0.035507705
7	0xbcc13a23	-0.023587292
8	0xbcf51754	-0.02991835
9	0xbc45715d	-0.012050954
10	0xbca2b72b	-0.019862732
11	0x3b0dec06	0.0021655574
12	0xbd7c613a	-0.06161616
13	0xbd0f9094	-0.03504999
14	0x3ccfed2c	0.025381647
15	0xbcae8801	-0.021305086
16	0x3ce2c360	0.027681053
17	0x3d105cb0	0.035244644
18	0xbcd5c00f	-0.026092557
19	0x3d0477fe	0.032340996
20	0x3cce941f	0.025217114
21	0x3d0c2218	0.0342122
22	0xbc848a60	-0.016179264
23	0x3d6ae81d	0.057350267
24	0x3bec94ec	0.0072199013
25	0x3c9a449a	0.01883154
26	0x3cc2b202	0.023766521
27	0xbd349d56	-0.04409536
28	0xbd0b32f1	-0.03398413
29	0xbd835eae	-0.06414543
30	0x3ce23c70	0.02761671
31	0x3d2faf06	0.042891525

convs.3.weight f4 [1, 32, 32]
0	0xbe03c1e2	-0.12866929
1	0xbdf25d25	-0.11834172
2	0x3b163ba3	0.002292373
3	0xbdb517b7	-0.08842414
4	0x3e6b86d6	0.23000655
5	0x3c12d8fb	0.008962865
6	0x3e566d27	0.20940076
7	0xbccbba06	-0.024868976
8	0x3d260634	0.04053326
9	0xbd8eb0ce	-0.069673166
10	0xbe82f03f	-0.25573918
11	0xbe62c3e5	-0.2214504
12	0x3dfcc9e7	0.12343197
13	0x3e4f9792	0.20272663
14	0xbcf0e813	-0.029407537
15	0xbde6eec0	-0.11276007
16	0x3e537d85	0.2065335
17	0xbe36e44d	-0.17860527
18	0x3e864bd1	0.26229718
19	0xbd9aea22	-0.075641885
20	0x3ca0fcb4	0.019651748
21	0x3e400228	0.18750823
22	0xbe91b368	-0.2845719
23	0x3d96631d	0.07343123
24	0xbc1d2c43	-0.009593072
25	0x3e380c28	0.17973387
26	0x3e5f3c9c	0.21800464
27	0xbe376221	-0.17908527
28	0xbd8c8b27	-0.06862479
29	0x3e36f7b2	0.17867926
30	0xbe932ac2	-0.2874356
31	0x3d8648e6	0.06556873
32	0xbd5d47c3	-0.054023515
33	0x3e812bd7	0.2522876
34	0x3dc1d20f	0.094638936
35	0xbd54aa20	-0.051920056
36	0x3b2fa201	0.0026799443
37	0x3e54b1ec	0.20770997
38	0x3e2a05c1	0.16603757
39	0xbdd1e1c5	-0.1024814
40	0xbd61f556	-0.05516561
41	0x3e203a7c	0.1564731
42	0xbe2e7284	-0.17035872
43	0xbddc0186	-0.10742478
44	0x3c1cf1f3	0.00957917
45	0x3dbafba3	0.09130027
46	0xbdf79931	-0.12089766
47	0xbe6db4ef	-0.23213552
48	0xbda06a88	-0.07832819
49	0x3dd27c3e	0.102776036
50	0x3e066576	0.13124642
51	0xbc9635ce	-0.018336203
52	0xbe35b1ec	-0.17743653
53	0x3e86f668	0.26359868
54	0xbe32a92e	-0.1744735
55	0x3e820907	0.25397512
56	0x3e6d9ff9	0.23205556
57	0xbc9ee9ae	-0.019398537
58	0xbb752712	-0.003740732
59	0x3e486948	0.19571412
60	0x3dcc2b9a	0.09969254
61	0xbdf5bcac	-0.11998877
62	0x3d0980a2	0.03356994
63	0x3df8f6ec	0.121564716
64	0xbe4d7f18	-0.20068014
65	0xbdc242f3	-0.09485426
66	0xbe025ec4	-0.12731463
67	0xbdba030d	-0.09082613
68	0x3ea00e69	0.31260994
69	0xbe13ed50	-0.14445996
70	0x3dc0df39	0.09417576
71	0xbdf6c94b	-0.12050112
72	0xbe9800ce	-0.29688114
73	0x3d8a1bcd	0.06743584
74	0xbe6e59ad	-0.23276396
75	0x3deebae5	0.11656741
76	0x3df00c9e	0.117211565
77	0xbd148ef6	-0.03626915
78	0x3e6d1af0	0.23154807
79	0x3dc9acaa	0.09847386
80	0xbe992a96	-0.29915303
81	0x3e86059b	0.26176152
82	0x3e2db45a	0.1696333
83	0xbe61d361	-0.22053291
84	0xbd054872	-0.032539792
85	0x3db7d3c5	0.08975939
86	0xbde289e7	-0.11061459
87	0xbe23b222	-0.15985921
88	0x3e5d9913	0.21640424
89	0xbe9ce803	-0.3064576
90	0xbe852bdd	-0.26010028
91	0xbe9221a2	-0.28541285
92	0xbe50e4f2	-0.20399836
93	0xbcf04285	-0.029328594
94	0xbe680281	-0.22657205
95	0x3e03edb9	0.12883653
96	0x3e8fbc98	0.28073573
97	0xbc215c9e	-0.009848742
98	0x3e94b328	0.29042935
99	0xbe48f625	-0.19625147
100	0xbe5a981a	-0.21347085
101	0xbe658402	-0.22413638
102	0x3d35686a	0.04428903
103	0xbe7e7831	-0.24850537
104	0x3d54e48d	0.051975776
105	0xbe1a51f7	-0.1507033
106	0x3d91a16a	0.071108654
107	0xbd80bfa7	-0.06286555
108	0x3e8b0fb0	0.27160406
109	0x3c75aca6	0.014994776
110	0xbe514e51	-0.20440032
111	0x3e98905e	0.29797643
112	0x3d61f431	0.05516452
113	0xbe0d0e0a	-0.13774887
114	0x3e206f78	0.15667522
115	0xbdc05101	-0.0939045
116	0xbe32f34d	-0.17475624
117	0xbe658da8	-0.22417319
118	0x3e6dd25b	0.23224775
119	0x3e09f207	0.13471232
120	0x3e2079c8	0.15671456
121	0xbe405258	-0.18781412
122	0x3e75d5cc	0.24007338
123	0x3e8f7664	0.28020012
124	0xbb8cb71f	-0.0042942907
125	0x3e2b055f	0.16701268
126	0xbe746db4	-0.23869973
127	0x3e0ca569	0.13734974
128	0x3e57470d	0.21023197
129	0xbd4b40d0	-0.049622357
130	0xbcd734ae	-0.026270237
131	0x3b559b8a	0.003259393
132	0xbe441f76	-0.19152626
133	0xbe2afdaa	-0.16698328
134	0x3e592ae8	0.21207774
135	0xbe96a2ed	-0.29421178
136	0xbb4995dc	-0.003075949
137	0x3deff3ff	0.117164604
138	0xbe044054	-0.12915164
139	0x3e965a41	0.29365733
140	0x3e16ff71	0.1474588
141	0x3e79dff7	0.24401842
142	0xbe0eb168	-0.13934863
143	0x3dd135f3	0.10215368
144	0xbe2add67	-0.16686021
145	0xbe14538a	-0.14484993
146	0x3e8390a6	0.25696295
147	0x3e71ed78	0.23625743
148	0x3d5db23c	0.054125056
149	0xbda17618	-0.07883853
150	0x3d9c4cb4	0.076318175
151	0xbe0b9131	-0.13629605
152	0xbce353ef	-0.027749984
153	0xbe664eaa	-0.22490945
154	0xbe3a1922	-0.1817365
155	0x3d06ea87	0.032938506
156	0xbdc1b906	-0.094591185
157	0x3d60dfa1	0.05490077
158	0x3e920ba4	0.28524506
159	0xbe0c56da	-0.13705006
160	0xbd40f829	-0.047111664
161	0x3e71081f	0.23538254
162	0x3e7faf42	0.249692
163	0x3e86da3d	0.26338378
164	0xbd3d5b1a	-0.04622946
165	0xbe7d7ed0	-0.24755406
166	0xbe9bf2ba	-0.30458623
167	0x3e105a27	0.1409689
168	0x3defecd4	0.11715093
169	0xbde2b229	-0.110691376
170	0xbd8252fd	-0.06363485
171	0x3de8d205	0.11368183
172	0x3e7e2a50	0.24820828
173	0x3e277652	0.1635373
174	0x3e2ca25c	0.1685881
175	0x3d8716ef	0.06596171
176	0x3e802494	0.25027907
177	0xbe42be24	-0.19017845
178	0xbe86b86b	-0.26312575
179	0xbe970fe4	-0.2950431
180	0xbe817274	-0.25282633
181	0xbda920f8	-0.082582414
182	0xbdec4666	-0.11536865
183	0x3e58df47	0.21178924
184	0x3e29e729	0.16592087
185	0xbdfa28de	-0.12214826
186	0x3c75c570	0.015000686
187	0xbe311a47	-0.1729518
188	0x3c3ac78a	0.011400113
189	0x3cc56b5f	0.02409905
190	0x3d0542e3	0.03253449
191	0xbea34aac	-0.31892908
192	0x3ca40558	0.02002208
193	0xbe8564cf	-0.26053473
194	0x3e14c84c	0.14529532
195	0xbe3c855f	-0.18410252
196	0xbda4ca5b	-0.08046409
197	0xbe27bbf0	-0.16380286
198	0xbe053d28	-0.1301161
199	0xbe62d69d	-0.22152181
200	0x3e7b1469	0.24519505
201	0xbe92ed8a	-0.28696853
202	0xbe7d0c34	-0.24711686
203	0xbe87f7bd	-0.26556197
204	0x3dab437d	0.08362482
205	0x3e3c8b79	0.1841258
206	0x3e1bd5ab	0.15218227
207	0x3e829726	0.25505942
208	0x3e7a8118	0.24463308
209	0x3db0466d	0.08607183
210	0xbe939fcb	-0.2883285
211	0xbd84101f	-0.06448387
212	0xbe640da7	-0.22270833
213	0x3e6ca375	0.23109229
214	0x3e3d8205	0.1850663
215	0x3e8dfc49	0.2773154
216	0xbcc569f4	-0.024098374
217	0x3d7bddc0	0.061490774
218	0xbe2958e6	-0.16537818
219	0xbd5e9f5b	-0.054351192
220	0x3d046114	0.032319143
221	0x3dd3ca6f	0.103413455
222	0xbdbc98f9	-0.09208865
223	0x3da08ae4	0.07838991
224	0x3e8b9f3c	0.27269924
225	0x3dc6c758	0.097059906
226	0xbe6d8a0e	-0.23197195
227	0x3d6aab84	0.057292476
228	0xbe82bb70	-0.25533628
229	0x3e03081f	0.12796067
230	0x3e438f66	0.19097671
231	0xbd118684	-0.035528675
232	0xbe6fabcd	-0.2340538
233	0xbe2b5cea	-0.16734663
234	0x3e9bacca	0.30405265
235	0x3e4ded54	0.20110065
236	0xbd89489e	-0.06703304
237	0x3c1d3201	0.009594441
238	0x3dcb6c23	0.09932735
239	0xbe912230	-0.28346395
240	0x3e870b6a	0.26375896
241	0x3e5170bd	0.20453162
242	0x3ccce834	0.025013067
243	0x3db7cdcb	0.08974799
244	0x3cb161d3	0.021653092
245	0x3e7a4593	0.24440603
246	0x3e807763	0.25091085
247	0x3e60578d	0.21908398
248	0x3dc6a46f	0.09699332
249	0x3c4a7788	0.0123576
250	0xbdd7eef0	-0.105436206
251	0xbcaaae50	-0.020835072
252	0xbe569826	-0.20956478
253	0xbe53b829	-0.2067572
254	0x3ea2eaf0	0.31819868
255	0xbc00e681	-0.007867456
